…
GELU</cell></row><row><cell></cell><cell></cell><cell>conv 1x1</cell></row></table><note></note></figure>
<figure xmlns="http://www.tei-c.org/ns/1.0" type="table" xml:id="tab_1"><head>Table 1 .</head><label>1</label><figDesc>Architectural hyper-parameters of RepMLPNet models (T for tiny, B for base, D for deep, L for large). Of note is that RepMLP-D256 is deeper than RepMLP-B256 but narrower so that they have comparable FLOPs and number of parameters.</figDesc><table><row><cell>Name</cell><cell>Input</cell><cell>B</cell><cell>C</cell><cell>S</cell></row><row><cell cols="5">RepMLP-T224 224?224 [2, 2, 6, 2] 64 [1, 4, 16, 128]</cell></row><row><cell cols="5">RepMLP-B224 224?224 [2, 2, 12, 2] 96 [1, 4, 32, 128]</cell></row><row><cell cols="5">RepMLP-T256 256?256 [2, 2, 6, 2] 64 [1, 4, 16, 128]</cell></row><row><cell cols="5">RepMLP-B256 256?256 [2, 2, 12, 2] 96 [1, 4, 32, 128]</cell></row><row><cell cols="5">RepMLP-D256 256?256 [2, 2, 18, 2] 80 [1, 4, 16, 128]</cell></row><row><cell cols="5">RepMLP-L256 256?256 [2, 2, 18, 2] 96 [1, 4, 32, 256]</cell></row></table><note></note></figure>
<figure xmlns="http://www.tei-c.org/ns/1.0" type="table" xml:id="tab_2"><head>Table 3 .</head><label>3</label><figDesc>Comparisons with EfficientNets. The throughput (samples/second) is tested on 2080Ti GPU with a batch size of 128.</figDesc><table><row><cell>Model</cell><cell cols="4">Input Top-1 acc FLOPs (B) Throughput</cell></row><row
…
